Deep_Learning/Transformer/saved/Transformer.pth (torch, 272933 bytes, 64 tensors)

encoder.embedding.weight f4 [201, 32]
0	0xbf31ae4a	-0.6940657
1	0xbef95444	-0.48697102
2	0x3ea49bd2	0.3215013
3	0x3f49fba4	0.788996
4	0xbe11493c	-0.14188093
5	0xc0254287	-2.5821855
6	0x3fcf3794	1.6188836
7	0x3fb84d9b	1.4398683
8	0x3ff3d2d1	1.9048711
9	0x3d4514f4	0.048115686
10	0xbe61bfd8	-0.22045839
11	0xbed7f4ce	-0.4217896
12	0x3ef3c3b4	0.47610247
13	0x3e39363d	0.18087097
14	0x3f70ad4d	0.94014436
15	0x3f2a0343	0.66411227
16	0x3f9ba7a0	1.216053
17	0x3f830b44	1.0237813
18	0x3db30c0c	0.08742532
19	0xbebb15bd	-0.36540022
20	0xbeabd043	-0.3355733
21	0xbe4dc4e4	-0.20094639
22	0xbf0e5e6a	-0.55612814
23	0xbd762756	-0.060096107
24	0xbee39630	-0.4445052
25	0xbfb55e5c	-1.4169421
26	0xbf2a4f52	-0.66527283
27	0x3eaecb88	0.34139657
28	0x3c6a1020	0.014286071
29	0x4009caa2	2.1529927
30	0x3f04cd0f	0.51875395
31	0xbfa95a6c	-1.323072
32	0x3f1c87f5	0.61144954
33	0x3f36f551	0.71468073
34	0x3d270580	0.04077673
35	0x3ee9f476	0.4569432
36	0xbfa2755b	-1.2692064
37	0xbe465fef	-0.19372533
38	0x3fdb2393	1.7120231
39	0x40017677	2.0228555
40	0x3e12c843	0.14334206
41	0x3f8f55d1	1.1198064
42	0xbf856fca	-1.042474
43	0x3fae5366	1.3619201
44	0x3fb76af0	1.432951
45	0x3faebd0e	1.3651445
46	0x3ebe7812	0.3720098
47	0x3fd2a4ac	1.6456504
48	0xbfd4f266	-1.6636474
49	0xbea18d44	-0.3155309
50	0x40306a2a	2.7564797
51	0xbf865e89	-1.04976
52	0x3f242ba6	0.641291
53	0x3da2b23b	0.07944151
54	0x400efa96	2.2340446
55	0x3e6e5dfa	0.23278037
56	0xbf9c9e6b	-1.2235845
57	0xbf27a64b	-0.6548812
58	0xbf78d4f4	-0.9719994
59	0x3d0b83d1	0.034061257
60	0x3f3de4a9	0.7417703
61	0x3f74090e	0.95326316
62	0x3e3ce4f7	0.18446718
63	0x3f13dbcc	0.5775726
64	0xbef56bca	-0.479338
65	0x3fb58874	1.4182267
66	0xbebd9fce	-0.37035984
67	0x3e5048c1	0.20340253
68	0xbf1d0fa1	-0.6135197
69	0xbf0ae619	-0.5425735
70	0xbfd26975	-1.6438433
71	0x400de902	2.2173467
72	0xbf6badfd	-0.9206236
73	0xbf1cbb3b	-0.6122319
74	0xbf22d777	-0.63610023
75	0x3fb180b0	1.3867397
76	0x3f0cde89	0.5502706
77	0x3e98cdbd	0.29844466
78	0x3ed0de72	0.40794712
79	0x3fc7b264	1.5601315
80	0xbe8ab9c3	-0.2709485
81	0xbf6a35d6	-0.914884
82	0x3f8ab27b	1.0835718
83	0xbf507c0f	-0.814393
84	0x3ee307ac	0.4434179
85	0xbf7106bd	-0.94150907
86	0xbe5987fd	-0.21243282
87	0x3fd6efd2	1.6791937
88	0xbff02b60	-1.8763237
89	0x3e882ef8	0.26598334
90	0xbef354cb	-0.4752563
91	0xbfe16b4b	-1.7610868
92	0xbfd1c68b	-1.6388716
93	0xbf2a4255	-0.66507465
94	0x3f988eaf	1.1918544
95	0x3e30b08b	0.17254846
96	0xbd66fbb7	-0.056392398
97	0xbcc75d60	-0.024336517
98	0xbea976bb	-0.33098397
99	0xbf31ce31	-0.6945525
100	0xbef4d06c	-0.47815263
101	0xbf5979c5	-0.8495143
102	0x400fb37b	2.2453296
103	0x3e4ca451	0.19984557
104	0xbe3b263e	-0.18276307
105	0x3ffb17b5	1.961661
106	0xbf6e9e62	-0.93210423
107	0x3d36f59d	0.04466783
108	0x40377f99	2.867163
109	0x3e269f32	0.16271666
110	0xbf532678	-0.82480574
111	0x3f1c06fb	0.6094815
112	0xbd49ae48	-0.049238473
113	0x3dd88153	0.10571542
114	0xbeb97e6f	-0.36229274
115	0x3de14667	0.10999756
116	0x3e967bba	0.2939127
117	0xbeab0758	-0.3340404
118	0x3ec1b67b	0.37834534
119	0xbf40a405	-0.75250274
120	0x3d03ea36	0.032205783
121	0xbf1477b3	-0.57995147
122	0x3f0d19b3	0.5511734
123	0xbf51abab	-0.8190257
124	0xbeab4e4f	-0.33458182
125	0xbd5c2c73	-0.053753328
126	0xbeda97bc	-0.4269389
127	0x3eb4ce87	0.35313818
128	0xbe39bafc	-0.18137735
129	0x3d1d9944	0.038476244
130	0xbfe9070f	-1.8205279
131	0x3daff586	0.08591752
132	0xbf3324e7	-0.69978184
133	0xbdf64291	-0.12024415
134	0xbfbed148	-1.4907618
135	0x3edbf5b9	0.4296091
136	0x3e392fca	0.18084636
137	0xbffd73d4	-1.9800973
138	0xbf1d65a3	-0.6148321
139	0x3e413f97	0.18871914
140	0xbf20545d	-0.6262873
141	0xbf1e4e49	-0.61838204
142	0xbf8f2613	-1.1183494
143	0x3f570647	0.83993953
144	0xbe141e26	-0.14464626
145	0xc00b119e	-2.1729503
146	0x3e67963e	0.22615907
147	0x3f993509	1.196931
148	0x3e8ec7da	0.2788685
149	0xbedccd27	-0.4312527
150	0x3f5322c7	0.8247494
151	0x3eabc16e	0.33546013
152	0x3f4e42d7	0.8057074
153	0xbfef4629	-1.8693286
154	0x3f5d9b5f	0.865652
155	0xbf17f90e	-0.593644
156	0xbf11d4ae	-0.5696515
157	0x3eae655d	0.3406171
158	0x3f767868	0.96277475
159	0xbf1d7b74	-0.615165
160	0xbee45827	-0.44598505
161	0xbf78da73	-0.9720833
162	0x3edf126f	0.4356875
163	0xbf08918d	-0.5334709
164	0xbffdad4a	-1.9818509
165	0xbf6a66e6	-0.9156326
166	0x3f293847	0.661015
167	0x3c39f022	0.011348756
168	0xbed902d7	-0.4238498
169	0xbf8519a4	-1.039845
170	0x3fcce32c	1.6006827
171	0xbf49ad4c	-0.78780055
172	0x3f7ed3ff	0.9954223
173	0xbefacd95	-0.48984972
174	0xbcbd6d55	-0.023123423
175	0xbe70206c	-0.23449868
176	0x3ee12e4b	0.4398063
177	0xbef16674	-0.47148478
178	0x3e2798c4	0.16366869
179	0x3fc2bb16	1.5213344
180	0x3ed72ddc	0.42027175
181	0xbf6bba7b	-0.9208142
182	0x3fff018b	1.9922346
183	0xc0035164	-2.0518427
184	0x3e4d5070	0.20050216
185	0xbeda3a21	-0.42622474
186	0x3fe3305b	1.7749132
187	0xbf0d6923	-0.5523855
188	0x3f62eee7	0.88645786
189	0x3fe3cd0e	1.7796953
190	0xbecfa37f	-0.40554425
191	0x3fe90caf	1.8206996
192	0xbfa6f559	-1.3043624
193	0x3ece63b5	0.40310445
194	0xbf060814	-0.52356076
195	0xbf1c475c	-0.61046386
196	0x3f50671d	0.8140734
197	0x3f4e56c4	0.80601144
198	0xbf4151ba	-0.7551533
199	0xbf3d6b5a	-0.7399193
200	0xbf9a1f9e	-1.2040899
201	0x3fbb7ee4	1.4648099
202	0xbf676dd9	-0.9040199
203	0x3f3260b7	0.69678825
204	0x3f3f5f6b	0.7475497
205	0xbe386f54	-0.18011218
206	0xbf522d47	-0.8210034
207	0xbe118333	-0.14210205
208	0xbed1c9ce	-0.40974277
209	0x3e903731	0.28167108
210	0xbfd3afb8	-1.6538
211	0x3f8741da	1.0566971
212	0x3e86bf73	0.2631794
213	0x3d9bcac7	0.07607036
214	0xbf51c2f2	-0.8193809
215	0xbf89e573	-1.0773147
216	0x3f2ad3c8	0.667294
217	0xbc876ff8	-0.016532883
218	0xbdb07e2f	-0.086178176
219	0xbfdea19c	-1.7393069
220	0xbf0f8607	-0.56063884
221	0xbf02ef52	-0.51146424
222	0x40092852	2.143086
223	0xbface24a	-1.3506558
224	0xbd066bcc	-0.032817647
225	0xbe0bca47	-0.13651381
226	0xbedeefbb	-0.43542275
227	0x3f90a3e2	1.1300013
228	0x3f7d1407	0.98858684
229	0x3f846298	1.0342588
230	0x3f881cc1	1.0633775
231	0xbf213255	-0.62967426
232	0xbf0a7ff0	-0.5410147
233	0xbfafa47f	-1.3722075
234	0x3e743483	0.23848157
235	0xbe4f16d9	-0.2022356
236	0x3cd7f196	0.026360314
237	0xbf75e381	-0.9605027
238	0x3feed5cf	1.8658999
239	0x3fa2ad84	1.2709203
240	0xbf16e227	-0.5893883
241	0x3f24cbdc	0.64373565
242	0xbf687529	-0.9080377
243	0xbe87b174	-0.26502573
244	0xbfe322ff	-1.7745055
245	0xbf49262a	-0.7857386
246	0xbfad28c9	-1.3528072
247	0x3e5e7c96	0.21727213
248	0x3e552788	0.20815861
249	0x3f4abc89	0.7919393
250	0x3c4066e5	0.011743282
251	0xbfe42991	-1.7825185
252	0x3e13fcef	0.14451955
253	0x3f891fbf	1.0712813
254	0x3ed8fefb	0.42382035
255	0x3eb20dc3	0.34776124

encoder.blks.encoder_block_0.attention.W_q.weight f4 [32, 32]
0	0xbdc3b3ac	-0.09555754
1	0xbd937ca9	-0.072015114
2	0x3eceb3f0	0.40371656
3	0x3d7de63b	0.061987143
4	0xbddcf80c	-0.10789499
5	0xbc916ff2	-0.017753575
6	0xbee08473	-0.4385105
7	0xbd91dbce	-0.071220025
8	0xbe20e57a	-0.15712538
9	0x3e51c50d	0.20485325
10	0xbeafce6a	-0.3433717
11	0xbea4f0fa	-0.322151
12	0xbdcb52a4	-0.09927872
13	0x3ef1133b	0.47084984
14	0xbd05380e	-0.03252416
15	0xbdecea91	-0.115681775
16	0x3e76d83c	0.24105924
17	0xbe4cfc7b	-0.20018189
18	0x3db11f6a	0.0864857
19	0x3e96d97b	0.294628
20	0xbde3135c	-0.11087677
21	0xbd81d9f7	-0.063404016
22	0x3e180110	0.14844155
23	0x3e477b69	0.19480671
24	0xbe9c79b3	-0.305616
25	0xbe62d707	-0.22152339
26	0x3d2d908a	0.04237417
27	0xbce8bb88	-0.028409734
28	0x3ea902ab	0.33009848
29	0xbedfd208	-0.4371493
30	0xbeb3d4d7	-0.3512332
31	0x3e800537	0.2500398
32	0x3f58d521	0.8470021
33	0xbc883409	-0.016626375
34	0xbe4d5de5	-0.20055349
35	0xbe1fc13f	-0.15601061
36	0x3eae7477	0.3407323
37	0xbe561d7c	-0.20909685
38	0x3ef68b59	0.4815319
39	0x3d437894	0.047722414
40	0xbe29c58f	-0.16579269
41	0x3e69fa44	0.22849375
42	0xbde23d1b	-0.11046811
43	0x3eca05d2	0.39457566
44	0x3f0b8062	0.5449277
45	0x3f05f84f	0.52332014
46	0x3ebaa91e	0.3645715
47	0x3e6611b4	0.2246769
48	0xbd4f5e87	-0.050627258
49	0x3e225952	0.15854385
50	0x3ef75f37	0.4831483
51	0xbe4bec36	-0.19914326
52	0xbece9820	-0.40350437
53	0x3b97f81a	0.0046377303
54	0x3e7da0cb	0.24768369
55	0x3eb1dafb	0.3473738
56	0x3dadf357	0.08493679
57	0xbdbd907b	-0.09256073
58	0x3e590819	0.21194495
59	0xbeaf6d0f	-0.34262893
60	0x3e0dca5b	0.13846724
61	0x3e149b56	0.14512381
62	0x3e063959	0.13107814
63	0xbe002c13	-0.12516813
64	0xbe311ed6	-0.17296919
65	0xbef0b142	-0.47010237
66	0x3cee0874	0.029056765
67	0x3e716f8b	0.23577707
68	0x3cc812cd	0.024423027
69	0xbea0cc31	-0.31405786
70	0x3f2373ea	0.63848746
71	0x3ea570b1	0.3231254
72	0xbdb2f3ec	-0.08737931
73	0xbd2e1d58	-0.042508453
74	0x3e877088	0.26453042
75	0x3e211c8b	0.15733545
76	0xbe170781	-0.14748956
77	0x3d5380ae	0.05163639
78	0xbeab5581	-0.33463672
79	0xbe22d9bc	-0.15903372
80	0x3edfa288	0.4367869
81	0x3e4c907d	0.19976993
82	0xbe640b79	-0.22270001
83	0x3eb81c44	0.35959065
84	0x3d7d9ab2	0.061915107
85	0x3e581617	0.21102177
86	0xbec66de2	-0.3875571
87	0xbd12113a	-0.03566096
88	0xbeb7bf72	-0.3588825
89	0xba0db561	-0.00054057507
90	0x3c2f62d3	0.010704714
91	0xbcf3b99f	-0.029751597
92	0xbe6c187e	-0.23056218
93	0xbddbdfe8	-0.10736066
94	0xbd3dff3d	-0.046385992
95	0x3d914738	0.07093662
96	0xbf13a353	-0.5767109
97	0xbe700bca	-0.23441997
98	0xbe356f37	-0.17718206
99	0x3ecb428f	0.39699218
100	0xbd7156cd	-0.05892067
101	0x3e6ac2e4	0.22925907
102	0xbe9f6337	-0.31130382
103	0xbe172521	-0.14760257
104	0x3e2e0d86	0.16997346
105	0xbebca076	-0.36841172
106	0xbda331f2	-0.07968511
107	0xbeaf3fa1	-0.34228233
108	0xbed21ec9	-0.41039112
109	0x3c6ac8f1	0.014330135
110	0xbece2e32	-0.4026962
111	0xbe197195	-0.14984734
112	0xbf348c04	-0.70526147
113	0xbeddc1d7	-0.4331195
114	0x3e0f330a	0.13984314
115	0x3e80c34c	0.25149
116	0xb849498b	-4.7990627e-05
117	0xbeaf9e81	-0.34300616
118	0xbe9724fa	-0.29520398
119	0xbe33944a	-0.17537037
120	0xbe36e51a	-0.17860833
121	0xbcfd8dd6	-0.030951422
122	0xbe60f0a2	-0.21966794
123	0x3d96fe5c	0.07372734
124	0xbe89fc15	-0.26950136
125	0xbd81f860	-0.06346202
126	0xbd859341	-0.06522227
127	0x3e57d735	0.21078189
128	0x3e10ebea	0.14152494
129	0x3e83725c	0.25673187
130	0xbdf3bf60	-0.11901736
131	0x3d9e86f8	0.07740587
132	0x3ea7ab1a	0.32747728
133	0x3e5a5ba9	0.21324028
134	0xbef6f233	-0.48231658
135	0xbe46c2c8	-0.1941024
136	0xbea6d0f7	-0.32581303
137	0xbe39e04d	-0.1815197
138	0x3d3f6de5	0.046735663
139	0xbe10b492	-0.14131382
140	0xbe9424a8	-0.28934216
141	0xbeef7a35	-0.46772924
142	0x3ceab9b0	0.028652996
143	0x3e878a60	0.2647276
144	0xbec85999	-0.39130858
145	0x3e0062b6	0.12537655
146	0x3e5025d1	0.20326926
147	0x3d15cac7	0.036570337
148	0x3dbe1d2c	0.09282908
149	0xbcfb5fb0	-0.030685276
150	0x3d019bc9	0.03164271
151	0x3e0943d2	0.13404778
152	0x3ddc9154	0.10769907
153	0xbe69a0f0	-0.22815299
154	0x3ca791aa	0.0204552
155	0xbd719be4	-0.05898656
156	0xbe7d701a	-0.24749795
157	0x3e116466	0.14198455
158	0x3ebae0c7	0.36499617
159	0xbe81c7b6	-0.2534768
160	0x3e12a76a	0.14321676
161	0xbe35bdae	-0.17748138
162	0x3e8989b2	0.26862866
163	0xbbd40b88	-0.006471101
164	0xbe01b536	-0.12666783
165	0xbe9abbbd	-0.30221358
166	0x3ee99fc2	0.45629698
167	0x3d461ce0	0.04836738
168	0xbe3a1f85	-0.18176086
169	0xbe290823	-0.1650701
170	0x3ee5faab	0.44917807
171	0xbdba1114	-0.09085289
172	0x3ed833eb	0.4222711
173	0x3ef2864b	0.47368082
174	0x3eb2d38f	0.3492703
175	0x3ec5fa90	0.38667727
176	0x3d2889b9	0.041146968
177	0xbc7500d5	-0.014953812
178	0x3eca4884	0.3950845
179	0xbd9a8c05	-0.07546238
180	0xbe7d1859	-0.24716319
181	0x3eea5cda	0.45773965
182	0x3e98b4ea	0.29825526
183	0xbecefc94	-0.40427077
184	0xbe19f49b	-0.15034716
185	0xbd76f515	-0.060292322
186	0xbdf59e5f	-0.119930975
187	0xbe995003	-0.29943857
188	0x3e8c2df5	0.27378812
189	0xbe97b880	-0.2963295
190	0xbef6222b	-0.48072943
191	0xbe66b536	-0.22530064
192	0xbe0db903	-0.13840108
193	0x3da9cc03	0.08290865
194	0x3eb28bc9	0.34872273
195	0x3e36a027	0.17834531
196	0xbe7f1378	-0.2490977
197	0x3d1b7fca	0.037963666
198	0xbec81f50	-0.3908639
199	0xbceb9ee4	-0.028762288
200	0xbe3393d3	-0.17536859
201	0x3e9de31d	0.30837336
202	0xbec43906	-0.38324755
203	0xbec5968b	-0.38591418
204	0xbef86f46	-0.48522395
205	0x3e73cc20	0.23808336
206	0xbea0e84f	-0.31427237
207	0x3e1a4fb4	0.15069467
208	0xbd2ae84c	-0.04172544
209	0xbdf61db1	-0.12017382
210	0x3e45413f	0.1926317
211	0x3e12965f	0.14315175
212	0x3e093e44	0.13402659
213	0xbdc04b3c	-0.0938935
214	0xbd37477d	-0.04474591
215	0x3e26930e	0.16267034
216	0xbdd56451	-0.104195245
217	0x3d950287	0.07275873
218	0xbe22f418	-0.15913427
219	0x3ee25f5c	0.44213378
220	0xbeda8ac5	-0.42683998
221	0xbe2ff81b	-0.17184488
222	0x3e6741e9	0.22583736
223	0x3df56e67	0.11983948
224	0xbe869e08	-0.26292443
225	0x3f0077bf	0.5018272
226	0x3e015da2	0.12633374
227	0x3c92fc74	0.017942645
228	0x3e9a88bf	0.30182454
229	0xbe3232b6	-0.17402157
230	0xbcab69be	-0.020924445
231	0x3ec7efd8	0.39050174
232	0x3e995273	0.29945716
233	0x3e8fa81d	0.28057948
234	0x3f12192b	0.57069653
235	0xbe04204e	-0.12902948
236	0x3e9b5f37	0.3034608
237	0x3d1c64a3	0.038181912
238	0xbcf13e19	-0.029448556
239	0x3d4e7bec	0.05041115
240	0x3eeb9a9d	0.46016398
241	0xbeeb8707	-0.46001455
242	0xbe92bdc5	-0.28660408
243	0x3dfcbf76	0.12341206
244	0xbd3e449c	-0.04645215
245	0x3e839dae	0.25706238
246	0xbdcdf7e0	-0.10057044
247	0x3ea455c1	0.32096675
248	0xbe023091	-0.12713839
249	0x3d5ee11b	0.054413896
250	0xbd46bad9	-0.048518036
251	0x3d8de6c0	0.06928778
252	0xbeef890e	-0.46784252
253	0xbde9d41b	-0.11417409
254	0x3ec2f17e	0.3807487
255	0xbec5466a	-0.38530284

encoder.blks.encoder_block_0.attention.W_k.weight f4 [32, 32]
0	0xbd548646	-0.051885866
1	0xbe33b7a9	-0.1755053
2	0xbdafc44f	-0.08582365
3	0xbe2b465a	-0.16726056
4	0xbdd52df2	-0.10409154
5	0x3e5068cf	0.20352481
6	0xbda08286	-0.07837395
7	0x3eddd3b5	0.43325582
8	0x3e9e2db8	0.30894256
9	0x3ca619d0	0.02027598
10	0xbe788425	-0.24269159
11	0x3e4c56bc	0.19954962
12	0x3e975b75	0.29561964
13	0x3e91df62	0.2849074
14	0xbeb43fc4	-0.352049
15	0x3eba8d85	0.36436096
16	0xbeadc6fe	-0.33940881
17	0x3c9c98ad	0.01911577
18	0x3d9bc9a1	0.07606817
19	0x3defad79	0.11703009
20	0xbe7b6d84	-0.24553496
21	0x3eb99b7f	0.36251447
22	0xbe04033b	-0.12891857
23	0x3e5552f1	0.20832421
24	0x3ea862fa	0.32888013
25	0x3e968583	0.29398736
26	0xbd4742d4	-0.048647717
27	0x3cedad8f	0.029013423
28	0x3bea7b34	0.0071558002
29	0x3d0e9c2b	0.034816902
30	0x3e000021	0.12500049
31	0xbf13a094	-0.576669
32	0x3edb0abc	0.42781627
33	0xbe816403	-0.25271615
34	0x3ead550d	0.3385395
35	0x3e199900	0.14999771
36	0xbdb6dc32	-0.08928718
37	0xbe4bf5ca	-0.1991798
38	0x3b95e52a	0.0045744376
39	0xbe6f8b4e	-0.23392984
40	0x3ed8abab	0.42318472
41	0x3e1b80af	0.15185808
42	0x3843a241	4.6642734e-05
43	0xbe0115e0	-0.12606001
44	0x3e5bcf64	0.21465832
45	0x3f431dc6	0.76217306
46	0x3de4d42e	0.111732826
47	0x3d4848ab	0.048897427
48	0xbede48c8	-0.43414903
49	0x3deb5edc	0.11492702
50	0xbe02060d	-0.1269762
51	0xbe4ec6c5	-0.20193012
52	0x3e7e52da	0.24836293
53	0xbe931be8	-0.28732228
54	0xbd9ee447	-0.07758384
55	0xbebaf59d	-0.36515513
56	0xbe35940c	-0.17732257
57	0x3ec37686	0.38176364
58	0xbe0bf62a	-0.13668123
59	0xbdf3dd63	-0.119074605
60	0xbe3ee11f	-0.18640564
61	0xbd4c875d	-0.04993378
62	0xbe9daf5a	-0.30797845
63	0x3d279d61	0.040921573
64	0xbcfb03b4	-0.030641414
65	0x3e788b0f	0.24271797
66	0x3d8702e3	0.065923475
67	0x3e431b54	0.19053394
68	0xbe00bbce	-0.12571642
69	0x3e0c16a8	0.13680518
70	0x3ec6cc4d	0.38827744
71	0xbeab5cc1	-0.33469203
72	0x3d18a1a4	0.037263528
73	0x3e71b589	0.23604406
74	0x3e930e54	0.2872187
75	0xbe2d045b	-0.16896193
76	0xbc846388	-0.016160741
77	0xbe925b36	-0.28585213
78	0xbf1acc68	-0.6046815
79	0xbe5cc3aa	-0.21559015
80	0xbd28b6a1	-0.041189793
81	0xbdc454fa	-0.095865205
82	0x3c225eeb	0.0099103255
83	0xbe5e4485	-0.21705826
84	0xbef12a56	-0.47102612
85	0x3e760447	0.24025069
86	0xbe819688	-0.2531016
87	0xbdb882ff	-0.090093605
88	0x3c851eb1	0.016249986
89	0xbe851c08	-0.2599795
90	0x3e7f0422	0.2490392
91	0xbe92060c	-0.28520238
92	0xbdb0e6cf	-0.08637773
93	0x3e901de3	0.28147802
94	0xbe80fba2	-0.2519198
95	0x3e8a0034	0.2695328
96	0xbd86ad1e	-0.06575988
97	0xbd33f91c	-0.04393874
98	0xbeb7b040	-0.35876656
99	0x3e8c10e5	0.2735664
100	0xbec6ae94	-0.38805068
101	0xbe72accf	-0.23698734
102	0xbe9bb3b7	-0.3041055
103	0x3ed7e42a	0.42166263
104	0x3e83a8b7	0.25714657
105	0xbf1871c6	-0.59548604
106	0x3e20dfa7	0.15710317
107	0xbe294eef	-0.16534017
108	0xbe98b668	-0.29826665
109	0xbf176801	-0.5914307
110	0x3c95c9c0	0.018284678
111	0xbdb69115	-0.08914391
112	0x3cd39256	0.025826614
113	0xbef61369	-0.48061684
114	0x3e59428d	0.21216793
115	0xbd80546b	-0.062661014
116	0xbe457f60	-0.19286871
117	0x3d7d6a78	0.061869115
118	0x3dc256d0	0.094892144
119	0xbdf090cd	-0.117463686
120	0x3e9c5722	0.30535227
121	0xbe02625c	-0.12732834
122	0x3ef7aee5	0.4837562
123	0xbe54ee24	-0.20793968
124	0x3df3414f	0.11877691
125	0xbe4bd9f0	-0.19907355
126	0x3e3dc01b	0.18530314
127	0xbe6e68bf	-0.23282145
128	0x3e30cdda	0.17266026
129	0x3e9f119e	0.31068128
130	0x3eb6872c	0.35650003
131	0x3e37b3fd	0.17939754
132	0x3e43912c	0.19098347
133	0x3d917697	0.07102697
134	0xbeb49b0c	-0.3527454
135	0xbdfef522	-0.12449099
136	0x3d554995	0.052072126
137	0xbede7f8d	-0.4345669
138	0xbe3d887c	-0.18509096
139	0x3e24de64	0.1610046
140	0xbdeb3c41	-0.11486102
141	0xbedbbeb8	-0.42918944
142	0x3eaa91dc	0.33314407
143	0xbdcf7647	-0.101299815
144	0x3e0835a5	0.13301714
145	0x3e8fc47c	0.28079593
146	0x3dc2a99b	0.09505006
147	0x3e61bd0e	0.22044775
148	0x3f006bb6	0.50164354
149	0x3b3e9b47	0.0029084252
150	0x3dabf116	0.08395593
151	0xbed545f4	-0.41654932
152	0x3d957a43	0.0729871
153	0x3e82d22d	0.25550976
154	0x3e260500	0.16212845
155	0x3eddb4c5	0.4330198
156	0x3e121f3e	0.1426973
157	0xbd8bd74b	-0.06828173
158	0x3e1fac91	0.15593173
159	0xbd66820c	-0.056276366
160	0x3e4f9cd8	0.20274675
161	0xbe66d3c9	-0.22541727
162	0x3d0ea984	0.03482963
163	0x3ecd6f74	0.40124094
164	0xbebf51d1	-0.37367108
165	0xbd651839	-0.055931304
166	0x3cf60fb7	0.03003679
167	0xbe719163	-0.23590617
168	0xbeaf45dd	-0.3423299
169	0x3e59de1d	0.21276136
170	0xbf395e51	-0.7240954
171	0x3d6db1ad	0.058030773
172	0x3ee0bfc5	0.4389631
173	0x3ea73cba	0.32663518
174	0xbe589e14	-0.21154052
175	0xbc9d04b4	-0.019167282
176	0xbe43a252	-0.19104889
177	0x3dc8a64a	0.09797342
178	0xbe00b2f8	-0.12568271
179	0x3cfc5d3f	0.030806182
180	0xbe1858f4	-0.14877683
181	0x3e28ca57	0.16483437
182	0xbedae699	-0.42754057
183	0x3d22eda5	0.039777417
184	0xbe20d57f	-0.15706442
185	0x3e4703d0	0.19435048
186	0xbe70badd	-0.23508783
187	0xbea80221	-0.32814124
188	0xbe9c4454	-0.3052088
189	0xbd977895	-0.07396046
190	0xbeba4d54	-0.36387122
191	0xbd878441	-0.06617022
192	0x3e712916	0.2355083
193	0xbc14c0ce	-0.009079171
194	0xbd98cd38	-0.07461017
195	0xbe4caa1c	-0.19986767
196	0xbe8fbc5e	-0.280734
197	0x3f167af5	0.5878137
198	0xbeb712f7	-0.35756657
199	0x3e9cd1b7	0.3062875
200	0x3edbefaf	0.42956302
201	0xbdc9a05e	-0.09845041
202	0x3d145fe1	0.03622425
203	0x3dab1f0a	0.083555296
204	0xbdfbcc57	-0.12294834
205	0xbdec2eca	-0.11532362
206	0xbedfef54	-0.4373728
207	0x3dc5e49c	0.096627444
208	0xbd0c724f	-0.0342887
209	0x3e095785	0.13412292
210	0x3e49bf9f	0.19702004
211	0xbdacab37	-0.08431094
212	0xbebab297	-0.36464378
213	0x3e70bb21	0.23508884
214	0xbe9c7039	-0.3055437
215	0x3eb8e4df	0.36112115
216	0x3e3e1675	0.18563254
217	0xbe046467	-0.12928925
218	0xbce2d5ef	-0.027689902
219	0x3d86b842	0.06578113
220	0x3c04d672	0.008107768
221	0xbde81277	-0.11331647
222	0x3e085ecd	0.13317414
223	0xbe8dc419	-0.27688673
224	0xbf0384f1	-0.5137473
225	0xbe762a6d	-0.24039622
226	0x3e900981	0.2813225
227	0xbce174db	-0.027521541
228	0xbd867d4a	-0.06566866
229	0x3e4d1f88	0.2003156
230	0x3dae40a4	0.08508423
231	0xbed862ae	-0.42262787
232	0x3e19c2c6	0.15015706
233	0x3ca25c31	0.01981935
234	0x3df2f76e	0.118636
235	0x3e1d6d99	0.1537384
236	0xbd0a39b9	-0.033746455
237	0x3ceec186	0.029145014
238	0x3e8d887a	0.27643186
239	0xbd2a471d	-0.041571725
240	0xbe53bb37	-0.20676886
241	0xbc3117fd	-0.010808942
242	0xbe60ae80	-0.21941566
243	0x3d9c1741	0.07621623
244	0xbf20ce28	-0.6281457
245	0x3e2ef81b	0.17086832
246	0xbe8c4bdb	-0.27401623
247	0x3b59e848	0.0033250023
248	0xbf313508	-0.69221544
249	0xbcde02d0	-0.02710095
250	0xbeb040bc	-0.34424388
251	0x3ee5381d	0.44769374
252	0x3d201a43	0.039087545
253	0x3ebf9dad	0.37424985
254	0x3e7efac1	0.24900343
255	0x3e80da91	0.25166753

encoder.blks.encoder_block_0.attention.W_v.weight f4 [32, 32]
0	0x3e770b45	0.24125393
1	0x3e25bf49	0.16186251
2	0xbe0bc1ca	-0.13648143
3	0xbe0568b2	-0.1302822
4	0xbe762a30	-0.24039531
5	0xbd124364	-0.0357088
6	0x3db32eac	0.08749136
7	0x3cea0266	0.028565597
8	0x3df8f084	0.1215525
9	0xbdcb13fd	-0.09915922
10	0x3c5e7aeb	0.013579111
11	0x3d2a28dd	0.041542877
12	0xbd3e4af7	-0.04645821
13	0xbd5d3e64	-0.05401458
14	0x3da92df3	0.08260717
15	0xbd62e773	-0.05539651
16	0x3dcd0c33	0.100120924
17	0x3d8d47ff	0.06898498
18	0xbd5c9389	-0.053851638
19	0xbd070535	-0.03296395
20	0xbd2aed05	-0.041729946
21	0xbcd39df2	-0.02583215
22	0xbd89c4ce	-0.06726991
23	0x3cc71c69	0.02430554
24	0xbe255f8e	-0.16149732
25	0xbdbae4e1	-0.091256864
26	0x3d88e98f	0.06685173
27	0x3d421b17	0.047389116
28	0x3d472753	0.048621487
29	0xbd0512c9	-0.032488618
30	0x3d873e2e	0.06603657
31	0x3daa867e	0.083264336
32	0x3d80b71b	0.062849246
33	0x3d348c44	0.04407908
34	0x3d79a023	0.060943734
35	0x3e1a8fe7	0.15093957
36	0x3e4716bb	0.19442265
37	0xbd82941c	-0.06375906
38	0xbdf4553c	-0.1193032
39	0x3e6edb2c	0.23325795
40	0xbd66a3dc	-0.056308612
41	0x3cc05a3f	0.023480533
42	0x3e6f5550	0.23372388
43	0x3d8e8895	0.06959645
44	0x3d3d1622	0.046163686
45	0x3d93ffbe	0.07226513
46	0xbe55dc17	-0.20884739
47	0x3c8fcc02	0.017553333
48	0x3e3a2f28	0.18182051
49	0xbd4d3700	-0.05010128
50	0x3e0103df	0.12599133
51	0xbd8ebb8e	-0.06969367
52	0xbda21fb1	-0.07916201
53	0x3de34b58	0.11098355
54	0xbd66bf40	-0.056334734
55	0x3d928c5b	0.07155677
56	0x3dcf38d4	0.10118261
57	0xbdc7378c	-0.097273916
58	0xbdb5c7ef	-0.08876025
59	0x3d0f0564	0.03491725
60	0x3d6811f3	0.056657743
61	0x3e2ebb1d	0.17063566
62	0x3d4534ca	0.048146047
63	0x3dad24d1	0.08454288
64	0xbdd35912	-0.10319723
65	0xbca857bf	-0.020549653
66	0xbd65a2e7	-0.05606356
67	0x3e32d528	0.17464125
68	0x3e037674	0.12838155
69	0xbe08205e	-0.13293597
70	0xbd46f688	-0.048574954
71	0x3d5f0d53	0.054456066
72	0x3e4ab685	0.19796188
73	0x3c8b1533	0.016977882
74	0x3a3a769e	0.0007113012
75	0x3d6664da	0.056248523
76	0x3b7e858d	0.0038836927
77	0xbe39851b	-0.18117182
78	0x3c22bea8	0.009933151
79	0x3d14c100	0.03631687
80	0xbdc83d71	-0.09777344
81	0x3ca91504	0.020639904
82	0x3db7ab77	0.08968251
83	0xbd1d1a62	-0.03835524
84	0x3dc05c8a	0.093926504
85	0x3d814ce9	0.063134976
86	0x3cc4c47f	0.024019478
87	0xbe12f4a1	-0.14351131
88	0xbd8be9af	-0.06831681
89	0x3dad5078	0.08462614
90	0x3e35ef31	0.17767026
91	0xbcf8b963	-0.030361837
92	0x3e53b14a	0.20673099
93	0xbb9e2a7c	-0.004826842
94	0x3dcc9107	0.09988599
95	0x3df16805	0.11787418
96	0x3d8fa110	0.07013142
97	0x3e22579e	0.15853736
98	0x3e073fff	0.13208006
99	0x3dacdb32	0.08440246
100	0x3d9d2e16	0.07674806
101	0xbe2324c9	-0.15932001
102	0x3d056ec2	0.03257633
103	0xbd48159c	-0.048848733
104	0x3dd526e3	0.10407808
105	0x3d4a0b90	0.049327433
106	0xbdf78428	-0.12085754
107	0xbe0d7e49	-0.13817705
108	0xbbeaf0d2	-0.0071698213
109	0xbe099203	-0.13434605
110	0xbccc16f1	-0.024913283
111	0x3dc3be9a	0.09557839
112	0xbda4e992	-0.080523625
113	0xbdd5ffcc	-0.1044918
114	0xbd95c140	-0.0731225
115	0xbd8b4185	-0.06799606
116	0x3df6ae99	0.120450206
117	0x3dddda92	0.108327046
118	0xbde58963	-0.11207845
119	0x3e262eca	0.16228786
120	0x3e67b612	0.22628048
121	0xbdd5caf5	-0.104391016
122	0x3ca3cad6	0.01999418
123	0xbd4b3e83	-0.049620163
124	0x3e570938	0.2099961
125	0xbdc11177	-0.09427159
126	0x3e149db5	0.14513285
127	0xbd88209c	-0.06646845
128	0x3e3ee88e	0.186434
129	0xbd1c0bf8	-0.03809735
130	0x3cab6405	0.020921716
131	0xbdbd6f59	-0.092497535
132	0x3ca8d582	0.020609621
133	0x3be0ddab	0.0068623624
134	0xbd9b28d1	-0.075761445
135	0x3e01d886	0.12680253
136	0xbd77bdec	-0.060483858
137	0x3c552074	0.013008226
138	0xbd8cf381	-0.06882382
139	0x3cb7fe16	0.022460025
140	0x3d19a27c	0.037508473
141	0xbda28780	-0.07936001
142	0x3c7de1d3	0.015495735
143	0xbdb43138	-0.0879845
144	0xbe36a16c	-0.17835015
145	0x3df2b943	0.11851742
146	0x3cab03d9	0.020875858
147	0xbe2f96ee	-0.17147419
148	0xbcc5bdea	-0.02413841
149	0x3dc26120	0.094911814
150	0x3d55fe03	0.052244198
151	0x3d3ddd27	0.046353485
152	0xbd38c1a1	-0.045106534
153	0x3bd8b7d7	0.0066137123
154	0xbbe22de1	-0.006902442
155	0xbdb44436	-0.08802073
156	0xbe17f5ff	-0.14839934
157	0x3e1af383	0.15131955
158	0x3dea1cf8	0.114313066
159	0x3d48dced	0.049038816
160	0x3d411fa9	0.047149334
161	0x3e570209	0.2099687
162	0x3e1c11bd	0.15241142
163	0x3d212ef7	0.03935143
164	0xbccef696	-0.025264066
165	0xbd2f83ff	-0.04285049
166	0xbdf7c4e5	-0.120981015
167	0xbe8541ea	-0.2602685
168	0x3d8649bb	0.06557032
169	0x3dae6be1	0.0851667
170	0xbdd24ebc	-0.10268924
171	0xbddaf489	-0.10691173
172	0x3c05e18a	0.0081714485
173	0x3d0570e4	0.032578364
174	0xbd49c31a	-0.04925833
175	0x3cd055d5	0.025431553
176	0x3e9ecd1e	0.31015867
177	0xbd8e83bf	-0.06958722
178	0xbc8edb1c	-0.017438464
179	0xbdb5ba74	-0.08873454
180	0x3d471df5	0.048612554
181	0x3c0324f4	0.008004416
182	0xbe370748	-0.17873871
183	0x3d7721bd	0.06033491
184	0xbe30a1d9	-0.1724924
185	0xbe062630	-0.13100505
186	0x3dc950c6	0.098298594
187	0xbcbc17a9	-0.0229605
188	0x3d2cf3bc	0.04222463
189	0xbc2a01ca	-0.010376403
190	0xbc5a7e94	-0.013335843
191	0x3d5cab17	0.0538741
192	0x3d61d855	0.05513795
193	0x3dc929ed	0.0982245
194	0xbdc3708e	-0.095429525
195	0x3e187a79	0.1489047
196	0x3d320568	0.043462187
197	0xbdd75d4f	-0.10515844
198	0xbd36d23f	-0.0446341
199	0xbe000a8c	-0.12504023
200	0x3e487b7e	0.19578359
201	0xbbeb20d7	-0.0071755457
202	0x3e3534b1	0.17695881
203	0x3ddce2b6	0.10785429
204	0xbd868421	-0.0656817
205	0x3ce3b81e	0.027797755
206	0x3dddf6b2	0.10838069
207	0xbdbd819a	-0.09253235
208	0xbd20a444	-0.039219156
209	0xbd387d71	-0.045041505
210	0xbd815ba7	-0.063163094
211	0x3d940a57	0.07228535
212	0x3dc91108	0.098177016
213	0xbcb99b25	-0.022656986
214	0x3da55a47	0.0807386
215	0x3db4c260	0.088261366
216	0x3da04804	0.07826236
217	0xbd434bd1	-0.047679726
218	0xbda087f2	-0.078384295
219	0xbd895b54	-0.067068726
220	0xbd27ef87	-0.040999915
221	0xbe6abe68	-0.22924197
222	0xbd84f0a6	-0.064912125
223	0x3e234461	0.15944053
224	0xbce527c8	-0.02797307
225	0x3da09799	0.07841415
226	0xbdd7d320	-0.10538316
227	0xbd89612d	-0.06707988
228	0xbd76d279	-0.060259316
229	0xbcd64050	-0.026153713
230	0x3db2e6f2	0.087354556
231	0xbd7a8688	-0.061163455
232	0x3d8829a1	0.06648565
233	0xbd717bb7	-0.058955874
234	0x3dbc37cb	0.09190329
235	0x3df79e2f	0.12090718
236	0xbd1ae380	-0.037814617
237	0xbdf0a46a	-0.117501095
238	0x3d1ef0ce	0.038803868
239	0xbdadebf6	-0.084922716
240	0x3df16371	0.11786545
241	0xbc91657f	-0.017748592
242	0xbdd20efa	-0.10256763
243	0xbe360bf6	-0.17778
244	0x3c9dacc5	0.019247422
245	0xbdb859e7	-0.090015225
246	0x3ccb0df0	0.02478692
247	0xbb823b5b	-0.003974361
248	0xbc5fd4a4	-0.013661537
249	0x3c92b022	0.017906252
250	0x3ddf8689	0.109143324
251	0xbd8db843	-0.06919911
252	0xbd22ad4b	-0.039716046
253	0x3e108492	0.14113072
254	0x3cda91e0	0.026680887
255	0xbe00810f	-0.12549232

encoder.blks.encoder_block_0.attention.W_o.weight f4 [32, 32]
0	0xbd036673	-0.032080125
1	0x3cb524cc	0.022112273
2	0xbbda5dd8	-0.006664019
3	0x3d7af9d9	0.06127343
4	0x3c132c8e	0.008982791
5	0xbd077a29	-0.033075485
6	0xbd3e562a	-0.04646889
7	0xbcdbdff1	-0.026840182
8	0x3d467f2b	0.04846112
9	0x3d0bb98e	0.034112506
10	0x3d365031	0.04451007
11	0x3dd218d8	0.10258645
12	0xbdcf4285	-0.101201095
13	0xbd24e25b	-0.040254932
14	0xba10fbd4	-0.00055306894
15	0x3cade584	0.021227606
16	0x3d7d4326	0.061831616
17	0x3d34e016	0.044159018
18	0xbe189656	-0.14901099
19	0xbd3ed55d	-0.046590198
20	0xbd0c2050	-0.034210503
21	0xbdeba27b	-0.115056
22	0x3c0bbef7	0.008529416
23	0xbd0ae2d9	-0.033907745
24	0x3c733ffd	0.014846799
25	0xbd04776a	-0.032340445
26	0xbdb56c13	-0.08858504
27	0xbd0756be	-0.03304171
28	0xba6de40c	-0.0009074814
29	0xbc60ee0e	-0.013728632
30	0x3dab2b8f	0.083579175
31	0xbd89e4ea	-0.06733115
32	0x3dfaabc2	0.122397915
33	0x3c7659ae	0.01503603
34	0x3ab8549c	0.0014063301
35	0x3cb0e365	0.021592805
36	0x3cc1cc2a	0.023656923
37	0x3d81db54	0.06340662
38	0xbdf38d0f	-0.11892139
39	0xbdd41eea	-0.10357459
40	0xbd03e711	-0.032202784
41	0x3d3552c6	0.044268392
42	0x3dce5c76	0.10076229
43	0xbe21bf04	-0.15795523
44	0x3d51ae60	0.051191688
45	0xbc921076	-0.017830115
46	0xbe2e4187	-0.17017184
47	0xbd82bd37	-0.06383746
48	0xbca98a23	-0.020695752
49	0xbe19335b	-0.14960997
50	0x3dc58a45	0.096455134
51	0x3db69074	0.08914271
52	0xbe50f3e7	-0.20405541
53	0x3d23fae2	0.040034182
54	0x3e056385	0.13026245
55	0xbb57dbe6	-0.0032937466
56	0x3d05a2a7	0.03262582
57	0x3d894363	0.06702306
58	0x3ce0957c	0.02741503
59	0xbd2714a4	-0.04079117
60	0xbccf9ca1	-0.025343241
61	0x3d9a022d	0.07519946
62	0xbcc06b4f	-0.023488669
63	0xbc6dbe19	-0.014510655
64	0x3cdad535	0.026712993
65	0x3a1dfed5	0.00060270476
66	0x3bcb9bdf	0.0062136496
67	0x3da78381	0.08179379
68	0xbd164ded	-0.03669541
69	0x3d67bf87	0.05657914
70	0xbd42daa2	-0.047571786
71	0x3d76d609	0.060262714
72	0xbda96f75	-0.08273212
73	0x3d28bb7f	0.041194435
74	0xbe3315b7	-0.17488752
75	0xbde92c13	-0.113853596
76	0x3d09f2cb	0.03367881
77	0x3e177d78	0.14793956
78	0xbdb42635	-0.0879635
79	0xbc2121cb	-0.009834717
80	0xbcfb314e	-0.030663159
81	0xbd72db97	-0.05929145
82	0xbe2758ec	-0.16342515
83	0xbe600afd	-0.21879192
84	0x3b2b958f	0.0026181673
85	0xbe3daa89	-0.18522085
86	0x3d0d2bab	0.034465473
87	0x3d3eb9c1	0.046563867
88	0x3c27fb63	0.010252806
89	0x3d164057	0.036682453
90	0x3c91f419	0.01781659
91	0xbd954c5d	-0.07289956
92	0x3b122f10	0.0022305883
93	0xbcb6bb2d	-0.02230605
94	0xbe0f4a62	-0.13993219
95	0x3d934e0f	0.07192623
96	0x3cd2dabc	0.025739066
97	0xbd0aa089	-0.033844505
98	0xbd8c7554	-0.06858316
99	0x3d4873fb	0.048938733
100	0xbdc02b8f	-0.09383308
101	0x3b8c7401	0.0042862897
102	0xbc474986	-0.012163525
103	0x3c9153b0	0.0177401
104	0xbe1f8220	-0.15576982
105	0xbe375005	-0.17901619
106	0xbcd435d6	-0.025904577
107	0xbb115d5a	-0.0022180886
108	0xbd8f2214	-0.06988922
109	0x3d754416	0.059879385
110	0x3e30329b	0.17206804
111	0x3d977734	0.07395783
112	0x3ce59ff5	0.028030375
113	0x3dab2685	0.083569564
114	0x3d862699	0.06550331
115	0xbde8dcd4	-0.113702446
116	0x3d354153	0.04425175
117	0xbc95bb36	-0.018277746
118	0xbdeb6f12	-0.11495794
119	0xbdea4803	-0.114395164
120	0x3dfa55fe	0.12223433
121	0x3e20d488	0.15706074
122	0x3d94ff6d	0.07275281
123	0xbc302e47	-0.010753221
124	0x3cbe32e3	0.023217624
125	0xbdf89727	-0.12138205
126	0x3ceed538	0.029154405
127	0x3dae5dae	0.08513962
128	0xbbade6d9	-0.00530706
129	0xbcaeb5cc	-0.021326922
130	0x3829b4ab	4.0461e-05
131	0xbcc128d2	-0.023579035
132	0x3d05702f	0.03257769
133	0x3dd64592	0.10462488
134	0xbd435c70	-0.047695577
135	0xbe185f2e	-0.14880058
136	0xbddd7f77	-0.108153276
137	0x3d9ac6b0	0.07557428
138	0x3e3f8010	0.18701196
139	0xbdbd3890	-0.09239304
140	0xbe0b6fd4	-0.13616878
141	0xbc957054	-0.018242039
142	0xbcd42451	-0.025896223
143	0x3e0d57d6	0.13803038
144	0x3d0e2a91	0.034708563
145	0x3c529a84	0.012854222
146	0x3d236d6c	0.039899275
147	0xbd875fe1	-0.06610084
148	0xbcd480b1	-0.025940271
149	0x3d136d87	0.035993125
150	0xbde7b5cb	-0.11313971
151	0xbd81cd26	-0.06337957
152	0xbc39f45e	-0.011349766
153	0xbd81a43b	-0.063301526
154	0xbd5a9c87	-0.053371932
155	0xbc2fe17a	-0.01073491
156	0xbb9fca50	-0.0048764125
157	0x3c85a54b	0.01631417
158	0xbcd57fb2	-0.026061866
159	0x3c9645ba	0.018343795
160	0x3d91e5e3	0.071239255
161	0x3d6c2c98	0.057659715
162	0x3da74529	0.08167488
163	0xbdd1c2fa	-0.10242267
164	0x3d3b048f	0.045658644
165	0xbe1d95da	-0.15389195
166	0xbe0a6af2	-0.13517359
167	0x3e103532	0.14082792
168	0xbc01d7c2	-0.007924976
169	0xbd847348	-0.06467301
170	0xbdf014bb	-0.11722704
171	0x3d7510d4	0.0598305
172	0x3dff4a5a	0.12465353
173	0xbda9f510	-0.08298695
174	0xbd19a7e2	-0.03751362
175	0x3d7d0c98	0.06177959
176	0x3b9ae538	0.004727032
177	0x3e082db9	0.13298692
178	0x3e3b9d3a	0.18321696
179	0xbd202070	-0.039093435
180	0x3de00f6e	0.10940443
181	0x3e131c66	0.14366302
182	0x3dee337e	0.11630915
183	0x3e4ae938	0.19815528
184	0x3dc07d73	0.093989275
185	0x3d37337d	0.044726837
186	0xbc919532	-0.017771337
187	0xbd61540d	-0.055011798
188	0xbcb6e547	-0.022326125
189	0xbbdcd2ef	-0.0067390124
190	0x3ca9d129	0.020729618
191	0x3dc33fb0	0.09533632
192	0xbd2fdaec	-0.04293339
193	0xbdd10f29	-0.1020797
194	0xbdf1a5a9	-0.11799175
195	0xbe22349c	-0.15840381
196	0x3e070c97	0.13188396
197	0x3da7a91b	0.08186551
198	0x3e019632	0.12654951
199	0x3dbe5654	0.092938095
200	0x3cde0eb1	0.027106615
201	0xbdb07666	-0.08616333
202	0xbda0b436	-0.078468725
203	0x3d53830a	0.05163864
204	0x3da36e46	0.07980017
205	0xbd39915e	-0.04530465
206	0x3d65edd5	0.056135017
207	0x3dd1c300	0.102422714
208	0xbc9ca576	-0.019121867
209	0x3d6124ce	0.05496674
210	0x3e07d653	0.13265352
211	0x3ce27eec	0.027648412
212	0xbd9125a8	-0.070872605
213	0xbe23d3c7	-0.15998755
214	0x3cc89f96	0.024490159
215	0x3dbf20b8	0.093324125
216	0x3d3b1b90	0.045680583
217	0x3db8f319	0.09030742
218	0xbded864f	-0.11597883
219	0xbe36f94e	-0.1786854
220	0xbdda03f8	-0.10645288
221	0x3d8251ac	0.06363234
222	0x3d27ddb0	0.040982902
223	0x3db33f93	0.0875236
224	0x3c7191ef	0.014744266
225	0x3d7a6a10	0.061136305
226	0xba52b416	-0.0008037699
227	0x3a80e17b	0.0009832823
228	0x3cab491d	0.020908887
229	0x3d7823d1	0.060581032
230	0x3b2a84ab	0.0026019018
231	0xbba4ad86	-0.0050255684
232	0x3d23029b	0.039797407
233	0xbcabd49b	-0.020975402
234	0x3d4ff268	0.050768286
235	0xbe148f3b	-0.14507763
236	0xbcb7f937	-0.022457702
237	0x3d7b48a0	0.061348557
238	0x3e0ded05	0.13859947
239	0xbda9dc0d	-0.082939245
240	0xbe038dac	-0.12847012
241	0xbdd2667b	-0.10273453
242	0x3dd68cde	0.10476087
243	0x3d0bbc09	0.03411487
244	0x3e096923	0.13419013
245	0xbe44f4c3	-0.19233994
246	0xbd84249a	-0.06452294
247	0xbe3ccdb5	-0.18437846
248	0x3cf3d917	0.029766602
249	0xbcec7c44	-0.028867848
250	0x3bea073a	0.0071419748
251	0xbd0dd190	-0.034623682
252	0xbd8ec02a	-0.06970246
253	0xbcebfe43	-0.028807765
254	0x3cff7336	0.031182867
255	0x3bfaee3c	0.0076577943

encoder.blks.encoder_block_0.addnorm1.ln.weight f4 [32]
0	0x3f8268b9	1.0188209
1	0x3f5773be	0.84160984
2	0x3f7131a6	0.9421638
3	0x3f77032b	0.9648921
4	0x3f8670b5	1.0503145
5	0x3f722a17	0.94595474
6	0x3f362011	0.7114268
7	0x3f74ae37	0.9557833
8	0x3f55e227	0.83548206
9	0x3f7c9ed7	0.9867987
10	0x3f8566ef	1.0422038
11	0x3f7b4ccb	0.9816405
12	0x3f8af06c	1.0854621
13	0x3f6d6540	0.9273262
14	0x3f756c50	0.95868397
15	0x3f6fcc98	0.9367156
16	0x3f54ce52	0.8312732
17	0x3f83f806	1.0310066
18	0x3f86c760	1.0529594
19	0x3f8ff008	1.1245127
20	0x3f6dfc5b	0.9296319
21	0x3f874f84	1.0571141
22	0x3f8f1e48	1.1181116
23	0x3f89ca2a	1.076482
24	0x3f835788	1.0261087
25	0x3f83b782	1.0290377
26	0x3f74cdf1	0.9562674
27	0x3f6df4a1	0.929514
28	0x3f861ddd	1.0477864
29	0x3f47e699	0.7808624
30	0x3f98bfc3	1.1933521
31	0x3f6918b8	0.9105334

encoder.blks.encoder_block_0.addnorm1.ln.bias f4 [32]
0	0x3e5a5b9b	0.21324007
1	0xbd8b91d1	-0.06814922
2	0x3e4a28c6	0.19742116
3	0xbdda51c6	-0.10660128
4	0x3df18f2d	0.11794887
5	0xbe7ef77e	-0.24899098
6	0xbd31899c	-0.043344125
7	0xbe4f0767	-0.20217668
8	0x3e0906b9	0.1338147
9	0x3e91d3fa	0.28482038
10	0xbe9c780f	-0.30560347
11	0x3e7f7fb0	0.24951053
12	0x3ecb011d	0.39649287
13	0x3eeb4d7a	0.45957547
14	0xbe57161d	-0.2100453
15	0x3a85da5a	0.0010212169
16	0xbe08d28e	-0.1336157
17	0xbe991462	-0.29898363
18	0xbed15e06	-0.40892047
19	0x3e38ca9a	0.18046036
20	0x3eccf50c	0.40030706
21	0x3cb4c896	0.022068303
22	0xbef10731	-0.470758
23	0xbda77392	-0.0817634
24	0xbf0b233d	-0.54350644
25	0xbe002770	-0.12515044
26	0x3b526a77	0.0032106915
27	0xb90f43ac	-0.00013662752
28	0xbe9321c0	-0.28736687
29	0xbe9f1137	-0.3106782
30	0x3eb6b324	0.35683548
31	0xbcd061c5	-0.025437245

encoder.blks.encoder_block_0.ffn.dense1.weight f4 [64, 32]
0	0x3d8ecdb4	0.069728285
1	0xbddde3a2	-0.10834433
2	0x3e93cf29	0.28868988
3	0x3d8c6c6e	0.06856619
4	0xbba4dfb3	-0.00503155
5	0x3e6f6e79	0.23381986
6	0x3d4fef4f	0.05076533
7	0xbe69c3ab	-0.22828548
8	0x3c072d73	0.008250582
9	0x3e20a0f4	0.15686399
10	0xbd88b6ef	-0.06675517
11	0x3e76ead7	0.24113022
12	0xbe02ab2e	-0.12760612
13	0xbe349842	-0.17636207
14	0x3e30c6cf	0.1726334
15	0xbeec8b69	-0.46200112
16	0xbecf0992	-0.4043699
17	0x3e2ac370	0.16676116
18	0x3f0988b6	0.5372423
19	0xbebbc364	-0.3667251
20	0xbe913b90	-0.28365755
21	0x3ef2dc87	0.47433874
22	0x3e2767c5	0.16348179
23	0x3e100cf7	0.14067446
24	0xbd3b9ed7	-0.04580578
25	0x3ef76a23	0.48323163
26	0xbd0793c2	-0.033099897
27	0x3e7a87a7	0.2446581
28	0x3d9ce859	0.07661504
29	0x3e1c56ea	0.1526753
30	0x3cb7ad51	0.02242151
31	0x3d27b2fb	0.040942173
32	0x3e38e969	0.18057789
33	0x3d83bb78	0.06432241
34	0x3e77321f	0.24140213
35	0x3e152a10	0.14566827
36	0x3e2747e7	0.16336022
37	0x3e6f9056	0.23394904
38	0x3d5c6d27	0.053815033
39	0xbe8ccfe3	-0.27502355
40	0x3e151968	0.14560473
41	0xbe30d433	-0.17268448
42	0x3eddaa16	0.43293828
43	0xbd63688b	-0.05551962
44	0xbefa1a99	-0.48848417
45	0xbeaeed60	-0.34165478
46	0x3ce76427	0.028245999
47	0xbe6a74cd	-0.22896118
48	0x3b3a7bfb	0.0028455246
49	0x3e64b936	0.22336277
50	0xbdfe9cde	-0.12432264
51	0xbed03c24	-0.40670884
52	0x3e24b2e3	0.16083865
53	0x3e103d87	0.14085971
54	0x3ddc5e67	0.10760193
55	0x3ed40ff9	0.41418436
56	0x3e3f3260	0.1867156
57	0xbe1b03b3	-0.1513813
58	0x3e13aa2d	0.14420386
59	0x3dfa3468	0.12217027
60	0xbe8c761c	-0.2743386
61	0xbc865069	-0.016395764
62	0xbd797e6a	-0.060911573
63	0xbf0885fb	-0.5332944
64	0xbe5bfd3c	-0.2148332
65	0x3e2fd676	0.17171654
66	0xbe838052	-0.25683838
67	0xbdf8315c	-0.121187896
68	0xbe6281cf	-0.2211983
69	0xbe43a0ec	-0.19104356
70	0x3eade5d1	0.33964399
71	0x3eca4bf0	0.3951106
72	0x3ea31b2c	0.31856668
73	0x3e7d80ba	0.24756137
74	0x3ccc0163	0.024903005
75	0xbd42049a	-0.04736767
76	0x3e5be7ee	0.21475193
77	0xbd7a750e	-0.06114679
78	0x3cd95568	0.026529983
79	0x3e94867f	0.29008862
80	0x3e4c30f0	0.19940543
81	0x3e3628c4	0.17788988
82	0x3e07589a	0.13217393
83	0x3d88eb54	0.0668551
84	0xbe9a63ff	-0.30154416
85	0xbbead7ca	-0.0071668373
86	0x3e175073	0.14776783
87	0xbe14eaf7	-0.14542757
88	0x3bf5a756	0.0074967546
89	0xbdcb13c6	-0.09915881
90	0xbe84c968	-0.2593491
91	0xbe4fb295	-0.20282967
92	0x3da05816	0.07829301
93	0x3e2f6578	0.17128551
94	0xbe9a485e	-0.30133337
95	0xbe6bf7d7	-0.23043762
96	0xbe56baa8	-0.20969641
97	0x3e1c9cca	0.15294185
98	0xbe2ab735	-0.1667145
99	0xbcecd7e7	-0.028911544
100	0x3dc39f6c	0.09551892
101	0xbe1af446	-0.15132245
102	0xbc91e476	-0.017809134
103	0x3d941ab6	0.07231657
104	0x3c3bbe09	0.011458882
105	0xbe480379	-0.19532575
106	0x3da05061	0.07827831
107	0xbebc1d58	-0.36741138
108	0xbb3e1b31	-0.0029007907
109	0xbde37b97	-0.11107557
110	0x3e465d4c	0.19371527
111	0x3d4a2515	0.04935177
112	0xbebe3c75	-0.371555
113	0xbd8f77fe	-0.070053086
114	0x3f5fc023	0.8740255
115	0xbedebc7d	-0.4350318
116	0x3e5fff54	0.21874744
117	0x3e969e9d	0.29417887
118	0xbe5830fe	-0.21112439
119	0xbe162e2a	-0.14666048
120	0x3e94c7e5	0.29058757
121	0xbe5c8bb7	-0.21537672
122	0x3de15cf4	0.110040575
123	0xbe883134	-0.2660004
124	0x3ee04e3e	0.43809694
125	0x3c98593f	0.018597243
126	0x3cc1b611	0.023646386
127	0x3d8d4f5e	0.06899904
128	0x3ec00c05	0.3750917
129	0x3cf74e88	0.030188814
130	0x3cee7d65	0.029112527
131	0xbce91f9e	-0.028457459
132	0x3dbbfe72	0.09179391
133	0xbdc8b5f6	-0.09800331
134	0x3e08b759	0.13351192
135	0x3e1d40c9	0.15356745
136	0x3d246a16	0.040140234
137	0xbd4d49d1	-0.050119225
138	0xbe02e1f4	-0.12781507
139	0xbe2c3083	-0.16815381
140	0xbe05fa05	-0.13083656
141	0xbc99cd33	-0.018774604
142	0x3eaa9c95	0.33322588
143	0xba9449aa	-0.0011313458
144	0x3deddf97	0.11614912
145	0x3e6bd743	0.23031335
146	0xbe24fe1e	-0.16112563
147	0xbebbc7ff	-0.36676022
148	0x3d05c423	0.032657754
149	0xbd49d0b7	-0.04927131
150	0x3f2558f9	0.64588886
151	0xbe1b9cb0	-0.1519649
152	0x3cc3973a	0.023875821
153	0xbdc68037	-0.09692424
154	0xbe022d37	-0.1271256
155	0x3e6beea2	0.2304025
156	0xbd625d2b	-0.055264633
157	0xbe73dce1	-0.23814727
158	0x3e6b12da	0.2295641
159	0xbe5c4fef	-0.21514867
160	0xbe90ec97	-0.28305504
161	0xbedafa81	-0.42769244
162	0x3c1ec2d6	0.009690007
163	0x3d609057	0.054825153
164	0xbcbc548f	-0.02298954
165	0xbe4bb8a4	-0.19894654
166	0x3df5bd6f	0.11999022
167	0xbde3ab84	-0.111166984
168	0x3dcd72cd	0.10031662
169	0x3d77c93f	0.060494658
170	0x3f2c02a3	0.67191523
171	0xbd8cdc2a	-0.068779305
172	0xbf1c0d6c	-0.6095798
173	0x3dda5244	0.10660222
174	0xbd3b52be	-0.045733206
175	0xbebe61b5	-0.3718392
176	0x3e570f2d	0.21001883
177	0xbe60b008	-0.2194215
178	0x3db45c18	0.08806628
179	0x3d57df93	0.05270345
180	0xbec199ed	-0.3781275
181	0xbe23050a	-0.15919891
182	0xbcf760eb	-0.030197581
183	0x3e700b5d	0.23441835
184	0x3e36dcb0	0.17857623
185	0x3ddc0853	0.10743775
186	0x3f03f5fe	0.5154723
187	0xbd99a983	-0.07503035
188	0x3e552faa	0.20818964
189	0x3e1d95b0	0.15389132
190	0xbddcaced	-0.107751705
191	0xbe273b90	-0.16331315
192	0xbe1435d2	-0.14473656
193	0xbd7dfcca	-0.062008657
194	0xbf0aaf8e	-0.54174125
195	0xbdcdfa25	-0.10057477
196	0xbc846182	-0.016159777
197	0x3e58627b	0.21131317
198	0xbe8c2139	-0.27369097
199	0x3e92a77a	0.286434
200	0x3eaa994d	0.33320084
201	0xbf17cb1c	-0.59294295
202	0x3e50b341	0.2038088
203	0x3d191b31	0.037379447
204	0xbecd100b	-0.40051302
205	0xbb974f9c	-0.0046176445
206	0x3d8a340e	0.0674821
207	0x3dafd725	0.085859574
208	0x3e835c94	0.2565657
209	0xbd3765a3	-0.044774663
210	0x3ec6fbaa	0.3886388
211	0x3e760eb0	0.2402904
212	0xbe584bbc	-0.2112264
213	0x3e73db77	0.23814188
214	0x3f0184b9	0.50593144
215	0x3e606810	0.21914697
216	0x3f15a83e	0.5845984
217	0xbea54dee	-0.32286018
218	0x3e4b6177	0.19861399
219	0x3da51998	0.08061522
220	0x3c8fd437	0.017557247
221	0x3d8078c6	0.06273036
222	0x3cadcb7d	0.021215195
223	0xbe4e4222	-0.20142415
224	0xbd9bf27a	-0.07614608
225	0x3e147c6e	0.14500591
226	0x3e8e9690	0.27849245
227	0x3d9f3e30	0.07775533
228	0xbef5a821	-0.47979835
229	0xbe1f23f5	-0.1554106
230	0x3dffbfd6	0.12487762
231	0xbc99cf07	-0.018775476
232	0xbe6cb4e0	-0.23115873
233	0xbe3e6c56	-0.18596014
234	0x3ea0699d	0.31330577
235	0x3b44838d	0.0029985637
236	0x3df2977a	0.11845298
237	0xbec8191e	-0.39081663
238	0xbd38b954	-0.045098618
239	0x3e3cb0ef	0.1842687
240	0x3cfe899b	0.031071475
241	0x3e8a2d38	0.26987624
242	0x3e9c9b03	0.30587015
243	0x3d990a36	0.07472651
244	0xbd220aae	-0.039560966
245	0x3d46b070	0.048508108
246	0x3eaf16a7	0.3419697
247	0xbe77074a	-0.24123874
248	0x3f008bdc	0.5021341
249	0x3e10bb10	0.14133859
250	0x3ea43f3b	0.3207949
251	0x3d714a86	0.05890896
252	0x3e871a56	0.2638728
253	0x3da382ec	0.07983956
254	0xbe42837e	-0.18995473
255	0x3ea5b66c	0.3236574

encoder.blks.encoder_block_0.ffn.dense1.bias f4 [64]
0	0xbeb9dd99	-0.36301878
1	0xbed9c7e9	-0.42535332
2	0xbef8f774	-0.48626292
3	0xbe7e8939	-0.24857034
4	0xbebed1c3	-0.3726941
5	0xbec20a05	-0.3789827
6	0xbf458ede	-0.77171123
7	0xbed9b1bc	-0.42518413
8	0xbe858d56	-0.26084393
9	0xbea74d28	-0.32676053
10	0xbec03b16	-0.3754508
11	0xbebe492c	-0.371652
12	0xbec1f0e5	-0.378791
13	0xbe920e5c	-0.2852658
14	0xbeccd192	-0.4000364
15	0xbe841dd6	-0.25804013
16	0xbedab908	-0.42719293
17	0xbee96718	-0.45586467
18	0xbece920b	-0.40345797
19	0xbecfaff6	-0.40563935
20	0xbedabd4e	-0.42722553
21	0xbf001a84	-0.5004046
22	0xbe81bff2	-0.25341755
23	0xbebc1236	-0.36732644
24	0xbe766cc9	-0.24064936
25	0xbe68c77a	-0.22732344
26	0xbf011bd6	-0.504331
27	0xbec9656b	-0.39335188
28	0xbed38527	-0.41312525
29	0xbe865df8	-0.26243567
30	0xbeb36ce8	-0.35044026
31	0xbe1bba56	-0.152078
32	0xbe96fea3	-0.29491147
33	0xbf040b07	-0.51579326
34	0xbef2c172	-0.47413212
35	0xbe6a8d26	-0.22905406
36	0xbe405012	-0.18780544
37	0xbe4d7149	-0.20062746
38	0xbeea7d7f	-0.4579887
39	0xbe8d51d2	-0.27601486
40	0xbe8db1b6	-0.27674645
41	0xbe83239c	-0.25613105
42	0xbe7754b7	-0.2415341
43	0xbe15b50c	-0.14619845
44	0xbe89210d	-0.26783028
45	0xbe323f88	-0.17407048
46	0xbf0ff3b4	-0.56231236
47	0xbebaba3c	-0.3647021
48	0xbecce466	-0.40018004
49	0xbea69bf3	-0.32540855
50	0xbeb0b6ba	-0.3451441
51	0xbeb8f382	-0.36123282
52	0xbe6b2306	-0.22962579
53	0xbecc4cd2	-0.3990236
54	0xbf0868e3	-0.53285044
55	0xbe27b8ed	-0.16379137
56	0xbedcdabf	-0.4313564
57	0xbebc3fcc	-0.36767423
58	0xbe962b75	-0.2933003
59	0xbebaed42	-0.36509138
60	0xbe8ba802	-0.27276617
61	0xbed62e9f	-0.41832444
62	0xbe7a95a5	-0.24471147
63	0xbea76564	-0.32694542
